test/refOnnx/simpleLoop_eq14.onnx (onnx, 829 bytes, 5 tensors)

dense_0_weight f4 [2, 5]
0	0xbf8642e0	-1.0489159
1	0xbf8521ef	-1.0400981
2	0x3f143ed1	0.5790835
3	0x3f590347	0.84770626
4	0xbe0f0877	-0.13968073
5	0x3f2e14b6	0.6800035
6	0x3f019459	0.50616986
7	0x3efedc1e	0.4977731
8	0x3f1bc28a	0.6084372
9	0x3ed32055	0.41235605

dense_0_bias f4 [5]
0	0xbb33cd05	-0.0027435434
1	0x3f7c9147	0.98659176
2	0xbfa56225	-1.2920576
3	0x3e20879e	0.15676734
4	0xbe526a35	-0.20548327

dense_1_weight f4 [5, 5]
0	0x3f73639b	0.9507386
1	0x3f280536	0.6563295
2	0xbf531345	-0.8245128
3	0xbeba9bf7	-0.36447117
4	0x3dddd523	0.10831668
5	0x3d5911af	0.05299538
6	0x40159bdb	2.3376377
7	0x3ee1bee7	0.4409096
8	0xbf068e36	-0.52560747
9	0xbf8950eb	-1.0727819
10	0x3eebaa71	0.46028474
11	0xbff911f5	-1.9458605
12	0x3f97055e	1.1798513
13	0x3ebb41cd	0.3657364
14	0x3fe9f8a4	1.8279004
15	0x3ecaafef	0.39587352
16	0x3f3748b4	0.7159531
17	0x3f0ce488	0.5503621
18	0xbd9fd95c	-0.0780513
19	0x3e68d7b0	0.22738528
20	0xbf14965a	-0.5804192
21	0xbe0837e4	-0.1330257
22	0x3f44d5d5	0.7688878
23	0xbea36ae1	-0.3191748
24	0x3f6002ad	0.8750408

dense_1_bias f4 [5]
0	0xbe74a5a7	-0.23891316
1	0x3e7dfaff	0.24802779
2	0xba2e5da9	-0.00066515297
3	0xbde9dfbf	-0.11419629
4	0xbd39fca5	-0.045406956

dense_2_weight f4 [5, 1]
0	0x3f552783	0.83263415
1	0x3f7018e2	0.9378797
2	0x3f2c0d85	0.6720813
3	0xbdc768aa	-0.0973676
4	0x3e9f441f	0.3110666
