examples/IEEE14/scripts/otherTrainingVariants/sequential.onnx (onnx, 88158 bytes, 14 tensors)

sequential/p_re_lu_3/Neg:0 f4 [64]
-0.018499177 -0.13502188 -0.07150468 -0.088679455 0.04673638 0.08595576 -0.010066203 -0.05465915
-0.24774414 -0.036292158 0.0058979113 0.1464173 0.05434058 -0.065776244 0.0076076365 0.155308
-0.21518132 0.15490608 0.01824526 -0.050943486 -0.066018924 0.009875301 0.008777319 0.14244877
0.00782519 0.009648536 -0.22619167 -0.14160393 -0.04911592 0.0054301536 0.17780676 -0.046120644
-0.05012845 -0.0 -0.06812996 -0.0 0.1702759 -0.13309376 -0.084168084 -0.10460953
-0.009822825 -0.22154038 0.0073072333 -0.050575998 -0.0 -0.07904767 -0.0571223 -0.04060111
0.01960112 -0.16874258 -0.061957862 0.12752426 0.010157034 -0.12585558 -0.073823616 -0.16386172
-0.12186179 -0.016493207 -0.088965066 0.054244548 -0.19708347 -0.13708223 -0.31762663 0.008768505
00000000: 968b 97bc 2d43 0abe 0c71 92bd 939d b5bd
00000010: a56e 3f3d 9309 b03d b7ec 24bc 46e2 5fbd
00000020: a4b0 7dbe 16a7 14bd 4443 c13b 6bee 153e
00000030: 3a94 5e3d b2b5 86bd 7b49 f93b 0f09 1f3e
00000040: 7e58 5cbe b39f 1e3e 1577 953c 1eaa 50bd
00000050: ee34 87bd 04cc 213c bfce 0f3c 17de 113e
00000060: 3a35 003c e514 1e3c ca9e 67be 9f00 11be
00000070: c62d 49bd 6eef b13b fa12 363e 00e9 3cbd
00000080: 7d53 4dbd 0000 0080 b887 8bbd 0000 0080
00000090: ce5c 2e3e bb49 08be 5160 acbd 853d d6bd
000000a0: eaef 20bc 7bdb 62be 8471 ef3b c728 4fbd
000000b0: 0000 0080 bfe3 a1bd 13f9 69bd 594d 26bd
000000c0: 8792 a03c dbca 2cbe 87c7 7dbd b895 023e
000000d0: b069 263c 49e0 00be d630 97bd 5ecb 27be
000000e0: ad92 f9bd c31c 87bc 5133 b6bd 882f 5e3d
000000f0: 40d0 49be 495f 0cbe f59f a2be c7a9 0f3c

sequential/p_re_lu_2/Neg:0 f4 [64]
-0.041888498 0.017105771 0.011206287 -0.011944333 -0.07221494 -0.0017060698 -0.039013404 0.013594133
-0.040215302 -0.0 0.023745669 -0.0198787 -0.08057472 0.0007072281 -0.10683792 -0.000495064
-0.16216685 -0.061349552 -0.12978461 0.01346868 0.023664957 0.0027196321 -0.24044636 0.044965718
-0.02994878 0.008789873 -0.029568244 0.043611113 0.012364798 -0.09676948 -0.06662315 0.010307017
-0.034418948 -0.2684072 -0.0 0.0018759957 -0.077527955 -0.02752026 0.08176827 -0.0
-0.018931558 -0.0 -0.0 -0.0064904504 -0.047953945 -0.18571521 0.028092636 -0.2259317
0.036916602 0.016729543 -0.039716873 -0.020753866 -0.021708868 -0.049451858 0.007530983 -0.020246226
-0.0056251553 -0.035032492 -0.0 -0.09666448 0.012075741 -0.21209387 -0.0076426854 -0.03620036
00000000: 4693 2bbd 6721 8c3c 939a 373c 2ab2 43bc
00000010: 6de5 93bd 349e dfba 85cc 1fbd edb9 5e3c
00000020: cdb8 24bd 0000 0080 4786 c23c a8d8 a2bc
00000030: 5c04 a5bd 4665 393a d7cd dabd 2fc7 01ba
00000040: 110f 26be ab49 7bbd 42e6 04be bdab 5c3c
00000050: 03dd c13c db3b 323b 9237 76be f92d 383d
00000060: 2557 f5bc 6603 103c 1a39 f2bc 91a1 323d
00000070: b995 4a3c 142f c6bd b871 88bd c3de 283c
00000080: e2fa 0cbd ab6c 89be 0000 0080 f8e3 f53a
00000090: fac6 9ebd 2b72 e1bc 1f76 a73d 0000 0080
000000a0: 5b16 9bbc 0000 0080 0000 0080 d8ad d4bb
000000b0: 5b6b 44bd 212c 3ebe 8722 e63c a45a 67be
000000c0: dd35 173d 650c 893c 29ae 22bd 0304 aabc
000000d0: ccd6 b1bc 088e 4abd 77c6 f63b 6adb a5bc
000000e0: 3953 b8bb 3b7e 0fbd 0000 0080 07f8 c5bd
000000f0: 54d9 453c 232f 59be 7e6f fabb d446 14bd

sequential/p_re_lu_1/Neg:0 f4 [64]
0.007012319 -0.12072251 -0.048197 -0.17220502 0.0067001046 0.028270237 -0.0 -0.11498322
-0.0388008 0.017134808 -0.1109788 -0.015936445 -0.08688454 -0.242718 -0.011963254 -0.01742267
-0.051961016 -0.009758651 -0.02297236 -0.005022209 0.011309897 0.010090372 -0.07310097 -0.043741256
-0.0019524035 -0.014870321 -0.0 -0.053914398 0.0654018 0.0011143744 -0.2011793 -0.053367697
-0.32964927 0.0029511817 -0.1323669 0.05289674 0.008478344 0.007207274 -0.0 0.021051804
0.04693921 0.07180758 -0.0 -0.037947495 -0.0046788147 0.008261653 0.08492129 0.018696574
-0.020214917 -0.049818553 -0.043779776 -0.029301213 -0.06398777 0.0031110935 -0.041500635 0.009741921
0.08661235 -0.06377279 -0.024021637 -0.13397703 -0.04683794 0.015944473 -0.015213572 -0.048642322
00000000: 98c7 e53b 5d3d f7bd 386a 45bd 8356 30be
00000010: 8d8c db3b fc96 e73c 0000 0080 537c ebbd
00000020: 96ed 1ebd 4c5e 8c3c da48 e3bd 268d 82bc
00000030: 86f0 b1bd 118b 78be 8601 44bc fdb9 8ebc
00000040: 13d5 54bd c0e2 1fbc 8830 bcbc 5891 a4bb
00000050: 254d 393c 1652 253c f6b5 95bd 082a 33bd
00000060: cae7 ffba a6a2 73bc 0000 0080 58d5 5cbd
00000070: 61f1 853d 3310 923a f201 4ebe 1698 5abd
00000080: cac7 a8be 9d68 413b 308b 07be 41aa 583d
00000090: c1e8 0a3c ff2a ec3b 0000 0080 d574 ac3c
000000a0: 5443 403d da0f 933d 0000 0080 d56e 1bbd
000000b0: be50 99bb e25b 073c 37eb ad3d 8f29 993c
000000c0: c199 a5bc 8a0e 4cbd 6c52 33bd 1909 f0bc
000000d0: 050c 83bd 7de3 4b3b 92fc 29bd 949c 1f3c
000000e0: d161 b13d 4f9b 82bd 06c9 c4bc 4631 09be
000000f0: 24d9 3fbd fc9d 823c 5942 79bc 2c3d 47bd

sequential/p_re_lu/Neg:0 f4 [64]
-0.42126122 -0.012380955 -0.068019204 -0.011375101 -0.16863376 -0.0 -0.17285547 -0.3053927
-0.08977368 -0.2312424 -0.1939734 -0.11095625 -0.044488396 -0.16417056 -0.032065403 -0.029024595
-0.07665479 -0.0 -0.17409325 -0.024878893 -0.11187105 -0.08904959 -0.14637275 -0.27935037
0.007979701 -0.01922488 -0.038875315 -0.20379171 -0.12147077 -0.017056448 -0.0 -0.24741398
-0.18172348 -0.24934179 -0.19450177 0.001313534 -0.12532525 -0.216907 -0.08693535 -0.29409826
-0.18219122 -0.009948254 -0.1553984 -0.06031683 -0.017845472 -0.027291507 -0.0 -0.0
-0.15706658 -0.009700251 -0.08228919 -0.22397754 -0.037199836 -0.06789562 -0.036021076 -0.19346815
-0.06315844 -0.15955485 -0.043087114 -0.06719754 -0.19420303 -0.1399904 -0.3829994 -0.09125252
00000000: 8daf d7be 7dd9 4abc a74d 8bbd a25e 3abc
00000010: 54ae 2cbe 0000 0080 0601 31be 6f5c 9cbe
00000020: 43db b7bd cfca 6cbe f7a0 46be 083d e3bd
00000030: 7739 36bd 541c 28be 0357 03bd fdc4 edbc
00000040: 30fd 9cbd 0000 0080 8045 32be d2ce cbbc
00000050: a61c e5bd a25f b6bd bde2 15be 0307 8fbe
00000060: 4bbd 023c 7f7d 9dbc b93b 1fbd c6ae 50be
00000070: abc5 f8bd f7b9 8bbc 0000 0080 175a 7dbe
00000080: b815 3abe 7453 7fbe 792b 47be e32a ac3a
00000090: 4355 00be de1c 5ebe 290b b2bd 0c94 96be
000000a0: 5690 3abe 00fe 22bc c220 1fbe c80e 77bd
000000b0: ab30 92bc 7092 dfbc 0000 0080 0000 0080
000000c0: 10d6 20be cded 1ebc 3c87 a8bd 5e5a 65be
000000d0: db5e 18bd dc0c 8bbd d68a 13bd 841c 46be
000000e0: 3659 81bd 5962 23be 1d7c 30bd dd9e 89bd
000000f0: 29dd 46be a559 0fbe 7f18 c4be 9ae2 babd

sequential/dense_4/MatMul/ReadVariableOp:0 f4 [64, 110]
0.17652239 -0.19948795 -0.07214623 -0.15619855 0.024410665 0.12235934 -0.14027786 -0.11630263
0.14768411 -0.13917686 -0.037918676 0.0069773807 0.0985513 -0.18769488 -0.1323507 -0.047680084
0.1537612 -0.072026506 -0.17799671 0.105398975 -0.1991694 -0.20243022 -0.11144769 -0.02352622
-0.10474553 -0.13525452 0.035582956 -0.0909525 -0.13822497 0.06207752 0.1749559 -0.19670497
0.17369556 0.112456396 0.10854723 -0.21668582 -0.09186984 0.16276377 0.06286693 0.12837246
0.17355834 -0.17547399 -0.04971912 0.055616762 -0.13608287 0.060527712 -0.19106868 -0.068193704
-0.21380116 -0.02610847 -0.014601053 0.119414166 -0.0058739153 0.06286108 -0.012044027 0.051605903
0.05618902 -0.046020314 -0.2029195 0.10464976 0.13287559 -0.18333228 0.093639106 0.12699047
0.0610726 -0.027849985 -0.1165403 0.13307646 0.095815375 0.05469673 0.07870563 -0.19018798
0.102118 -0.040778745 -0.14843526 -0.0288628 0.08154472 0.056712683 -0.21011637 0.07941447
-0.13462779 -0.15513669 -0.10783126 -0.1335632 -0.10850437 0.16543962 0.010528827 -0.123257495
-0.17900434 0.006378645 -0.076262504 -0.0807627 0.02696061 -0.1829286 0.18258773 -0.09312587
0.09420924 -0.13190277 -0.043714393 -0.12914138 -0.046561472 -0.03913945 0.037476745 -0.16978896
-0.16695611 -0.06084746 -0.074240915 -0.12373538 -0.08270107 -0.0044511156 0.12722173 0.08468866
0.16141386 -0.011357093 -0.087357745 -0.0004967243 0.17614956 -0.006055937 0.076914825 -0.095059335
-0.022003192 0.06506698 0.066373385 0.25270954 0.1791147 -0.14954817 0.12314901 0.11545176
0.09085318 -0.008202739 0.13294487 -0.031382818 0.108228475 0.118182555 0.04876375 0.02207917
0.0052452027 -0.06995711 0.19138576 -0.16890849 0.115694664 0.10520406 -0.007847112 0.098243475
-0.11951359 -0.037971947 0.038646184 0.19315997 -0.063789554 0.011383981 0.05606926 0.1461705
0.17767139 0.03182312 0.023119435 0.03535032 -0.014089228 -0.0478977 0.06148419 0.10604753
-0.05601448 -0.07557292 -0.14672105 -0.0031901896 0.13551232 0.010260879 0.09329947 -0.13739368
-0.058481473 0.11674543 0.11764643 0.19743457 0.18614 0.18888627 0.18366575 0.136245
-0.028336976 -0.057184603 0.124829456 -0.047290992 -0.073000185 -0.04286974 -0.16421257 -0.051259216
-0.11666041 0.16107687 -0.03295194 -0.1399784 -0.026578773 0.08303006 0.0865087 0.097999796
0.08764297 -0.0019945458 -0.027849747 -0.0055793575 0.19838643 -0.12082598 -0.13314995 0.21196276
0.08238134 0.1362405 0.14136927 0.057615306 0.15400071 -0.061923314 0.007825513 0.06914339
-0.014657451 0.026895497 0.044450108 -0.038274072 -0.055376202 -0.0009413064 0.24335456 -0.058298033
0.034572423 -0.060104813 -0.0245701 -0.010363963 -0.034609582 0.11331074 -0.10799133 -0.12046611
0.21413201 0.21353854 0.01603917 0.108420365 -0.030314539 -0.20914923 -0.0034928438 0.06750643
-0.118909895 -0.24042553 0.17354299 -0.067627795 0.08930086 -0.11489881 -0.16025288 -0.1598265
0.1656058 0.055764515 0.054204836 0.12506817 0.18411176 -0.0037062482 0.08497692 -0.050213173
0.22239415 0.106673695 0.008655262 -0.15372819 0.01348311 -0.10605049 -0.08824067 0.051498458
00000000: 49c2 343e 9246 4cbe 67c1 93bd 83f2 1fbe
00000010: e0f8 c73c 8997 fa3d 00a5 0fbe 1330 eebd
00000020: 813a 173e 6184 0ebe 9d50 1bbd 83a2 e43b
00000030: 44d5 c93d 1633 40be f186 07be 314c 43bd
00000040: 9373 1d3e a282 93bd c544 36be 6bdb d73d
00000050: 10f3 4bbe de49 4fbe b03e e4bd 0fba c0bc
00000060: d384 d6bd 2980 0abe 6fbf 113d 4e45 babd
00000070: d98a 0dbe ff44 7e3d a427 333e 076d 49be
00000080: 40dd 313e 8a4f e63d 034e de3d e3e2 5dbe
00000090: 4126 bcbd 8cab 263e 61c0 803d 1274 033e
000000a0: 47b9 313e 74af 33be 47a6 4bbd 67ce 633d
000000b0: 4f59 0bbe e8eb 773d 82a7 43be 24a9 8bbd
000000c0: b1ee 5abe 6ee1 d5bc 4139 6fbc 6a8f f43d
000000d0: f979 c0bb 4fbd 803d 5054 45bc b660 533d
000000e0: 7526 663d cc7f 3cbd 21ca 4fbe 9d52 d63d
000000f0: 8a10 083e 75bb 3bbe dcc5 bf3d ca09 023e
00000100: 4327 7a3d a725 e4bc aeac eebd 3245 083e
00000110: da3a c43d ae09 603d 6b30 a13d a3c0 42be
00000120: 3e23 d13d 9d07 27bd 6aff 17be ae71 ecbc
00000130: eb00 a73d 8f4b 683d bf28 57be 0ea4 a23d
00000140: dedb 09be 27dc 1ebe a3d6 dcbd cbc4 08be
00000150: 8a37 debd 0169 293e 1a81 2c3c 6d6e fcbd
00000160: ea4c 37be f403 d13b 842f 9cbd ea66 a5bd
00000170: 7fdc dc3c a351 3bbe 47f8 3a3e c7b8 bebd
00000180: c6f0 c03d 8511 07be dd0d 33bd a33d 04be
00000190: 3eb7 3ebd b050 20bd 3781 193d 28dd 2dbe
000001a0: 8bf6 2abe 303b 79bd 9f0b 98bd fa68 fdbd
000001b0: 2e5f a9bd aada 91bb 6a46 023e 4071 ad3d
000001c0: ad49 253e 1a13 3abc 9ee8 b2bd 9a36 02ba
000001d0: 8d60 343e e270 c6bb 8585 9d3d 78ae c2bd
000001e0: 0a40 b4bc d641 853d c5ee 873d 2563 813e
000001f0: d869 373e 2823 19be 8c35 fc3d f971 ec3d
00000200: 3b11 ba3d c864 06bc b322 083e 458b 00bd
00000210: e4a6 dd3d b209 f23d 7fbc 473d 60df b43c
00000220: f3df ab3b ac45 8fbd a1fa 433e 59f6 2cbe
00000230: 53f1 ec3d 3a75 d73d 2c91 00bc e033 c93d
00000240: 8bc3 f4bd 7988 1bbd 764b 1e3d bacb 453e
00000250: 19a4 82bd e183 3a3c e1a8 653d b8ad 153e
00000260: 7def 353e f658 023d f864 bd3c 7fcb 103d
00000270: 81d6 66bc 6130 44bd d9d6 7b3d 732f d93d
00000280: 706f 65bd fac5 9abd 0b3e 16be 8012 51bb
00000290: bec3 0a3e 3f1d 283c cb13 bf3d eeb0 0cbe
000002a0: 458a 6fbd 3a18 ef3d 9df0 f03d 4a2c 4a3e
000002b0: 7c9b 3e3e 676b 413e e012 3c3e cf83 0b3e
000002c0: f222 e8bc 673a 6abd 96a6 ff3d 33b4 41bd
000002d0: 1f81 95bd 2e98 2fbd 5727 28be 2ff5 51bd
000002e0: a7eb eebd 56f1 243e 9df8 06bd 7f56 0fbe
000002f0: babb d9bc aa0b aa3d 792b b13d 1eb4 c83d
00000300: 287e b33d edb6 02bb 2725 e4bc 0bd3 b6bb
00000310: d025 4b3e 9d73 f7bd 7658 08be c40c 593e
00000320: 8cb7 a83d a182 0b3e 1bc3 103e 07fe 6b3d
00000330: 5db2 1d3e 4da3 7dbd 9536 003c 0d9b 8d3d
00000340: ce25 70bc f253 dc3c 5111 363d 46c5 1cbd
00000350: 28d2 62bd 01c2 76ba f031 793e ebc9 6ebd
00000360: d09b 0d3d 7730 76bd 3c47 c9bc 9dcd 29bc
00000370: c7c2 0dbd 760f e83d 8f2a ddbd f0b6 f6bd
00000380: 6c45 5b3e d9a9 5a3e 9464 833c 7f0b de3d
00000390: 3256 f8bc 372b 56be 32e8 64bb d040 8a3d
000003a0: 0887 f3bd 1c32 76be 41b5 313e 7180 8abd
000003b0: 5fe3 b63d 1150 ebbd 5519 24be 8fa9 23be
000003c0: 9194 293e 5569 643d e405 5e3d df11 003e
000003d0: cb87 3c3e 87e4 72bb 6108 ae3d 54ac 4dbd
000003e0: 4bbb 633e bd77 da3d cdce 0d3c ec6a 1dbe
000003f0: 43e8 5c3c 0031 d9bd 86b7 b4bd 0cf0 523d

sequential/dense_4/BiasAdd/ReadVariableOp:0 f4 [110]
0.032589246 0.002243134 0.031110765 0.03365903 0.043414306 0.048747618 0.020591184 0.00956787
0.02879359 0.034186695 0.041028988 0.034063704 0.052618004 0.038944498 0.0013860258 0.010048031
0.028398579 0.045473162 0.032121375 0.0368465 0.044235125 0.057772547 0.0200205 0.04234997
0.0481895 0.05566374 0.042534154 0.039911874 -0.00087149604 0.024205271 0.025568724 0.033660293
0.04242615 0.054557033 0.022334037 0.035397895 0.030792305 0.02752057 0.0055733416 0.03520303
0.029299412 0.038042143 0.025109772 0.05154601 0.032883856 0.030544993 0.022521917 0.012622569
0.04375103 0.04474149 0.03480994 0.029175956 0.05414323 0.06441422 0.051726922 0.033922106
-0.009298198 0.03975734 0.043721173 0.0327568 0.028153988 0.040256523 0.030926695 0.04053833
0.032164138 0.031527005 0.028871698 0.023322834 0.036611624 0.01595701 0.048932713 0.047106173
0.033461966 0.035129145 0.005652002 0.038415167 0.04378121 0.042645957 0.01939456 0.054286275
0.033608504 0.014700487 0.041126266 0.031478073 0.040634636 0.04625968 0.046028174 0.0096836
0.029081086 0.010444244 0.01987734 0.013333895 0.01395212 0.004777354 -0.0022467582 0.015547114
0.023870979 -0.021843188 0.024903229 0.01297179 -0.0047289818 0.004322183 0.027046407 0.0261194
0.03107251 0.003147683 -0.0031512843 0.025465278 0.03371083 0.01804338
00000000: 4d7c 053d 8b01 133b 01dc fe3c 0dde 093d
00000010: 33d3 313d 95ab 473d d8ae a83c 8ec2 1c3c
00000020: 89e0 eb3c 5907 0c3d 030e 283d 6286 0b3d
00000030: fa85 573d 4484 1f3d 4fab b53a 7fa0 243c
00000040: 23a4 e83c 1142 3a3d b491 033d 5bec 163d
00000050: e42f 353d e8a2 6c3d 0802 a43c 2a77 2d3d
00000060: 5a62 453d a9ff 633d 4b38 2e3d a27a 233d
00000070: 1c75 64ba 224a c63c 8075 d13c 60df 093d
00000080: 0bc7 2d3d 3277 5f3d dff5 b63c 62fd 103d
00000090: 2540 fc3c d272 e13c 94a0 b63b 0d31 103d
000000a0: 5205 f03c 14d2 1b3d 02b3 cd3c e921 533d
000000b0: 39b1 063d 7e39 fa3c e27f b83c e4ce 4e3c
000000c0: 4834 333d da42 373d de94 0e3d 6a02 ef3c
000000d0: 4bc5 5d3d 9aeb 833d 9cdf 533d e8f1 0a3d
000000e0: 7857 18bc 98d8 223d f914 333d ff2b 063d
000000f0: 31a3 e63c 06e4 243d fb59 fd3c 850b 263d
00000100: 8bbe 033d 7622 013d 5784 ec3c 870f bf3c
00000110: 12f6 153d 47b8 823c ab6d 483d 67f2 403d
00000120: 6a0f 093d 94e3 0f3d 6e34 b93b 3959 1d3d
00000130: ed53 333d 87ad 2e3d 57e1 9e3c 495b 5e3d
00000140: 12a9 093d 50da 703c 0474 283d 27ef 003d
00000150: 8170 263d ca7a 3d3d 0a88 3c3d f6a7 1e3c
00000160: 753b ee3c 561e 2b3c ced5 a23c 6976 5a3c
00000170: 6f97 643c 5a8b 9c3b 593e 13bb 53b9 7e3c
00000180: 128d c33c 7cf0 b2bc db01 cc3c a187 543c
00000190: 93f5 9abb 19a1 8d3b 6d90 dd3c 5af8 d53c
000001a0: c78b fe3c 5c49 4e3b c785 4ebb 8f9c d03c
000001b0: 5e14 0a3d b6cf 933c

sequential/dense_3/MatMul/ReadVariableOp:0 f4 [64, 64]
0.09897437 0.21022306 -0.17047173 -0.21015987 -0.08612524 -0.18230276 -0.066940166 -0.12417264
0.21272255 0.055086907 -6.4162785e-05 0.09117823 0.019291932 -0.047285482 0.14910512 0.20205241
-0.32769525 -0.1191589 0.107243076 0.13020538 -0.2611007 -0.07800456 -0.20497487 -0.13684082
-0.11161464 0.058461186 0.17406401 0.1490274 -0.033895966 -0.18376239 -0.12335416 0.18129545
-0.043521486 -0.0667671 0.1730854 0.086849734 -0.08389361 -0.02512032 0.1403819 0.07856314
0.13858506 -0.17959857 -0.09012269 0.19777897 -0.017406851 0.09671756 0.046328083 0.01714633
0.031837486 -0.15067989 -0.11317691 -0.021567266 0.026296673 0.054886628 0.018989364 -0.11664712
-0.054137137 -0.15334171 0.11514926 0.11200337 0.203411 0.06865825 0.19193263 -0.15327464
0.11925546 -0.011805651 -0.04170874 0.37166128 -0.18205807 0.24087916 -0.23815204 0.095060416
0.033919524 0.030787969 0.010462567 -0.32485676 0.048352588 -0.096263036 -0.063505866 -0.08552551
0.058412917 0.100844234 -0.04009113 -0.12068135 -0.050766308 0.24069537 -0.041880775 0.15110202
0.17077212 0.07297216 0.17947048 -0.18949053 0.121993884 0.027644357 -0.21974836 -0.2764598
0.122991845 -0.07984171 -0.14462852 -0.070204586 -0.03253299 -0.08044843 0.21662456 -0.18903011
-0.059004925 0.07321431 0.13132662 -0.08723183 -0.07534493 0.16056332 -0.24799986 0.015024556
0.14209896 -0.11964245 -0.35464072 -0.0037821028 -0.042501118 -0.039398786 -0.13436903 0.24186449
-0.27295065 -0.03790097 -0.39365909 0.10559356 -0.08595666 -0.3559104 -0.006149798 -0.057528872
0.00025304657 -0.0052670236 -0.093704715 -0.09181973 0.13214348 -0.17988077 0.060883865 0.004680239
-0.062666945 -0.15952145 0.12025186 0.0987453 -0.028264428 -0.13959235 0.11884984 -0.04703481
0.22145152 0.20934545 0.034940697 0.22585066 0.20327163 -0.12729777 0.195359 -0.031069668
-0.06975513 0.0064011575 0.06159828 -0.017978594 0.11578882 0.18624623 -0.021882573 0.13512103
0.17553154 0.18441083 0.19944923 -0.23402646 0.04323964 -0.18386306 -0.06915884 0.08879461
0.070144214 0.15472819 -0.0073718373 -0.17810006 -0.107591756 0.17455989 -0.13017002 0.057036858
-0.1044106 0.051744584 -0.048467286 0.18965511 0.055954903 -0.17767505 0.01707523 0.059723303
0.14360535 -0.13344347 -0.07802778 -0.18851075 -0.11002608 -0.2076029 0.06470927 -0.056161407
0.17012258 -0.21384825 -0.20038602 0.07271062 -0.1215064 0.19729939 -0.0032254616 -0.07714641
0.11764438 -0.22483134 -0.036120657 -0.05333104 -0.08383369 0.053525638 -0.08973394 -0.023750613
0.104615465 -0.27578938 -0.07613862 0.29115066 0.04281058 -0.06078058 0.08133217 0.062322948
0.17860271 -0.10951623 -0.08343492 -0.04532926 -0.3420387 -0.13209856 -0.18497524 0.012166276
-0.24260092 -0.2039273 0.08493485 0.18754189 -0.13597588 -0.035005722 -0.06982003 -0.11102115
-0.19871728 -0.14988273 -0.06320084 -0.014981729 0.041465286 0.025173178 0.079415835 0.044835806
-0.117669135 -0.04566998 -0.25352812 -0.25042364 0.22122641 0.21691753 0.058679562 0.23846804
0.18730749 -0.056636736 -0.047690373 0.019006504 -0.1205758 0.042708315 0.07317292 0.18683103
00000000: 13b3 ca3d b744 573e 2490 2ebe 2634 57be
00000010: 6e62 b0bd 93ad 3abe ed17 89bd 3a4e febd
00000020: f1d3 593e cfa2 613d 228f 86b8 a7bb ba3d
00000030: 1d0a 9e3c 6cae 41bd 03af 183e d4e6 4e3e
00000040: acc7 a7be 9509 f4bd 42a2 db3d 8f54 053e
00000050: feae 85be dbc0 9fbd efe4 51be 0020 0cbe
00000060: 3796 e4bd ff74 6f3d d63d 323e a49a 183e
00000070: 7fd6 0abd 352c 3cbe 1ba1 fcbd 84a5 393e
00000080: 9643 32bd 30bd 88bd 4d3d 313e 46de b13d
00000090: 6ad0 abbd 21c9 cdbc 46c0 0f3e b6e5 a03d
000000a0: 3ee9 0d3e b0e8 37be 3f92 b8bd 9286 4a3e
000000b0: d098 8ebc db13 c63d 84c2 3d3d 7676 8c3c
000000c0: 0668 023d d44b 1abe 4cc9 e7bd d6ad b0bc
000000d0: 1f6c d73c cdd0 603d 958f 9b3c afe4 eebd
000000e0: e7be 5dbd 9c05 1dbe 60d3 eb3d 0662 e53d
000000f0: f94a 503e b29c 8c3d fd89 443e 07f4 1cbe
00000100: 353c f43d 7d6c 41bc c9d6 2abd 634a be3e
00000110: 6e6d 3abe 07a9 763e 21de 73be 09af c23d
00000120: 33ef 0a3d 0d37 fc3c 306b 2b3c a053 a6be
00000130: 5d0d 463d 8e25 c5bd 5d0f 82bd 0028 afbd
00000140: 6242 6f3d 6c87 ce3d 9936 24bd c927 f7bd
00000150: 55f0 4fbd d978 763e 2d8b 2bbd 7dba 1a3e
00000160: e3de 2e3e 6e72 953d 1cc7 373e ce09 42be
00000170: eed7 f93d 6b76 e23c b705 61be 248c 8dbe
00000180: 26e3 fb3d 0d84 a3bd 8019 14be 6cc7 8fbd
00000190: 5041 05bd 25c2 a4bd d4d2 5d3e 1c91 41be
000001a0: 26af 71bd 62f1 953d 7c7a 063e 9aa6 b2bd
000001b0: 714e 9abd b66a 243e adf3 7dbe 8e29 763c
000001c0: 6482 113e 1a07 f5bd 7893 b5be 28dd 77bb
000001d0: a715 2ebd 9f60 21bd 0998 09be 53ab 773e
000001e0: 30c0 8bbe 0c3e 1bbd af8d c9be 7041 d83d
000001f0: 0c0a b0bd e339 b6be 3f84 c9bb 65a3 6bbd
00000200: 56ab 8439 ff96 acbb 42e8 bfbd fc0b bcbd
00000210: 9f50 073e aa32 38be 5c61 793d b15c 993b
00000220: 8757 80bd 9759 23be 9b46 f63d fa3a ca3d
00000230: cd8a e7bc 4cf1 0ebe 8b67 f33d 93a7 40bd
00000240: 30c4 623e a75e 563e fa1d 0f3d 6545 673e
00000250: 7026 503e 595a 02be 310c 483e d185 febc
00000260: c7db 8ebd cdc0 d13b 7a4e 7c3d d847 93bc
00000270: b022 ed3d 55b7 3e3e 1543 b3bc 2b5d 0a3e
00000280: 8abe 333e 31d6 3c3e 6b3c 4c3e a2a4 6fbe
00000290: 0c1c 313d 9946 3cbe 26a3 8dbd f3d9 b53d
000002a0: c5a7 8f3d 1171 1e3e 748f f1bb dd5f 36be
000002b0: 1159 dcbd d4bf 323e 4a4b 05be 7b9f 693d
000002c0: 3ad5 d5bd 21f2 533d a285 46bd f334 423e
000002d0: f830 653d 73f0 35be 5ae1 8b3c 6ca0 743d
000002e0: 480d 133e 68a5 08be 07cd 9fbd f608 41be
000002f0: 5a55 e1bd db95 54be 4b86 843d 8109 66bd
00000300: 9d34 2e3e 09fb 5abe fe31 4dbe 4ee9 943d
00000310: 59d8 f8bd da08 4a3e 4462 53bb f0fe 9dbd
00000320: 89ef f03d 303a 66be 41f3 13bd a671 5abd
00000330: ffb0 abbd b33d 5b3d 6ec6 b7bd a590 c2bc
00000340: a240 d63d 4434 8dbe 91ee 9bbd b311 953e
00000350: 265a 2f3d 0ff5 78bd 7b91 a63d 5946 7f3d
00000360: a1e3 363e 0c4a e0bd eddf aabd 2dab 39bd
00000370: b21f afbe d844 07be 266a 3dbe 0f55 473c
00000380: 606c 78be 51d2 50be 53f2 ad3d fb0a 403e
00000390: 433d 0bbe 2962 0fbd cefd 8ebd 0f5f e3bd
000003a0: 8b7c 4bbe dc7a 19be 716f 81bd ed75 75bc
000003b0: 81d7 293d fb37 ce3c c5a4 a23d c0a5 373d
000003c0: 84fc f0bd 7210 3bbd 70ce 81be 8737 80be
000003d0: 2d89 623e a11f 5e3e fb59 703d f730 743e
000003e0: 89cd 3f3e ecfb 67bd fb56 43bd 87b3 9b3c
000003f0: 72f0 f6bd eaee 2e3d afdb 953d a250 3f3e

sequential/dense_3/BiasAdd/ReadVariableOp:0 f4 [64]
0.00032257254 0.015594089 -0.01976506 -0.059625525 -0.012987876 -0.090922445 0.03492961 0.057367787
-0.037291724 -0.014338272 0.032118443 0.0042672227 -0.06338815 0.078073315 0.056823514 -0.01660001
-0.011357171 0.05125066 0.0826456 0.0053723147 0.067763634 0.007549761 0.04203033 -0.011121643
0.019762421 0.02597664 0.048698097 0.071845286 -0.041492645 0.028893583 -0.028800368 0.06783028
-0.053972892 0.041507587 -0.0030932422 -0.01273301 -0.088769406 0.041479517 -0.019724865 -0.016026624
-0.014951786 0.027780617 0.05783407 -0.06069448 0.01825165 -0.071268365 -0.02059207 -0.070377484
0.03261196 -0.009722719 -0.021183683 0.0074249464 0.04158301 -0.089440644 -0.02460247 -0.05304237
0.035701334 -0.015590508 -0.021822745 -0.013107715 0.032438483 0.06906323 0.035110116 0.037647773
00000000: f41e a939 5a7e 7f3c 56ea a1bc e539 74bd
00000010: 1acb 54bc 8c35 babd 5a12 0f3d 7cfa 6a3d
00000020: 35bf 18bd 12eb 6abc a18e 033d 0fd4 8b3b
00000030: a5d1 81bd e7e4 9f3d c6bf 683d bffc 87bc
00000040: 6e13 3abc 36ec 513d 1942 a93d 3e0a b03b
00000050: a9c7 8a3d fc63 f73b ff27 2c3d 8d37 36bc
00000060: cde4 a13c f6cc d43c a877 473d 9f23 933d
00000070: 31f4 29bd 3cb2 ec3c c0ee ebbc 9aea 8a3d
00000080: ae12 5dbd dc03 2a3d feb7 4abb 1d9e 50bc
00000090: bccc b5bd 6de6 293d 0a96 a1bc 444a 83bc
000000a0: 56f8 74bc 2d94 e33c 6be3 6c3d c69a 78bd
000000b0: 7c84 953c 26f5 91bd b3b0 a8bc 1222 90bd
000000c0: 1e94 053d 0a4c 1fbc 6789 adbc f74c f33b
000000d0: f252 2a3d a82c b7bd 1f8b c9bc f542 59bd
000000e0: 903b 123d 546f 7fbc 9dc5 b2bc bec1 56bc
000000f0: 37de 043d 0671 8d3d a0cf 0f3d 8d34 1a3d

sequential/dense_2/MatMul/ReadVariableOp:0 f4 [64, 64]
0.2035217 -0.120409176 -0.09581628 -0.042734772 -0.14745975 -0.18377139 -0.12232597 0.16980466
-0.24071105 -0.07600767 0.10096756 0.030942855 -0.09698155 0.21881 -0.20168309 -0.12236764
0.17333737 -0.020822616 -0.035799377 -0.16473256 -0.09400262 -0.16962484 -0.17919283 0.038799528
0.17451672 0.012774279 0.14347228 -0.046951104 -0.028948968 0.08157736 0.15787879 0.09097324
-0.15418217 0.017687012 -0.16122267 0.055178817 0.088019095 0.019610174 -0.02929208 0.0689833
0.07482592 -0.11464105 0.0003112028 0.1787007 -0.072339386 0.19216156 0.21389735 -0.16648506
0.19313855 0.13228822 -0.08037551 0.18774748 -0.035384707 -0.005269542 0.1624387 -0.09165133
0.16970347 -0.1109648 -0.11480188 0.124412194 -0.18160369 0.01479896 -0.03290036 -0.085202746
-0.22843911 0.13461187 -0.16516942 -0.027748996 0.046454858 0.024304625 0.124859974 0.09577022
-0.03940667 0.09832581 -0.025891472 -0.21384588 0.050959595 0.0382481 0.15867884 -0.19198284
-0.015442628 0.031112412 -0.12385065 -0.046384685 -0.16548906 -0.118746854 0.14131796 0.027269825
-0.14536749 0.065378875 0.20882769 -0.10852081 -0.08547881 -0.19379497 0.056738425 -0.018100409
0.18713531 -0.09801551 -0.20710227 -0.14490321 -0.021198718 0.06929315 0.17478476 0.1306782
-0.1550701 -0.0027071992 0.21528278 -0.05395931 -0.14385274 0.108818926 0.05009237 0.112348214
-0.013603081 0.036150753 0.10527491 0.07230395 0.13227539 0.058590014 0.16979952 -0.08512478
-0.07074696 0.15476954 0.05063526 0.19166805 -0.13095464 -0.13540432 -0.011842992 -0.05341098
-0.09383294 -0.1433117 0.0193316 -0.21956389 0.14240518 0.11346218 0.10913636 -0.2044986
-0.0076482897 -0.07703055 -0.18513359 -0.19197933 0.1702036 0.116135806 0.14546108 0.14997429
-0.21519303 0.02363609 0.08181353 -0.18188749 0.17987771 0.13402766 -0.11460105 -0.20328845
0.16407637 0.105367295 0.12005705 0.09250176 0.09272915 0.034698315 -0.019818613 0.2118622
0.033362564 -0.11107506 -0.00910745 -0.07236397 0.031083439 0.22218208 0.107583314 0.062291604
0.15129474 -0.17936173 0.10290525 -0.05198749 -0.16792145 0.009756235 0.16736318 -0.08154296
0.0071976352 -0.08950596 0.028405322 0.0054602562 -0.040422093 0.0025671502 0.037522655 0.03801599
0.13125567 -0.14536358 0.20133659 0.13059007 0.20947109 -0.20567045 -0.062090695 0.17146964
-0.23922601 -0.028449098 -0.18820156 0.16392018 -0.13509038 -0.17628206 -0.068696074 0.06912143
0.053124826 0.029746229 0.03154722 -0.22880769 -0.18808463 -0.026144525 0.055236183 0.108474046
0.16992955 -0.10333318 -0.08737546 -0.12628733 -0.02385145 -0.09608325 -0.050881214 -0.09211387
-0.020319879 -0.14655341 -0.15066507 -0.19579111 0.08417636 -0.047300722 -0.19540787 0.1445323
0.11443478 0.11202608 0.16594243 -0.24640898 -0.19704941 0.13676628 -0.20628381 -0.07725414
-0.21054067 -0.14086656 -0.1408162 0.217418 -0.14333056 0.004203604 -0.11161532 0.12517837
0.03167786 0.093149506 -0.1453102 0.04816834 0.07921624 -0.10703122 -0.08127219 -0.051239803
-0.16898611 -0.055403553 0.15946671 0.19061148 -0.07518548 -0.104263894 0.021928582 -0.15500683
00000000: fe67 503e 1699 f6bd 533b c4bd a80a 2fbd
00000010: b0ff 16be 912e 3cbe 0a86 fabd 46e1 2d3e
00000020: f57c 76be e9a9 9bbd 15c8 ce3d df7b fd3c
00000030: 439e c6bd bb0f 603e 0386 4ebe e39b fabd
00000040: 5a7f 313e 3194 aabc 5ea2 12bd a7af 28be
00000050: 7284 c0bd 22b2 2dbe 537e 37be 41ec 1e3d
00000060: 83b4 323e 364b 513c 66ea 123e cd4f 40bd
00000070: 6326 edbc 0812 a73d faaa 213e 2e50 ba3d
00000080: eee1 1dbe 5ae4 903c 8e17 25be 2f03 623d
00000090: 5b43 b43d 84a5 a03c f2f5 efbc 1e47 8d3d
000000a0: 553e 993d edc8 eabd ef28 a339 51fd 363e
000000b0: ac26 94bd 00c6 443e e807 5b3e 0f7b 2abe
000000c0: 1dc6 453e 9076 073e ea9b a4bd e040 403e
000000d0: 8eef 10bd 1fac acbb 5556 263e b1b3 bbbd
000000e0: bfc6 2d3e 8341 e3bd 401d ebbd d2cb fe3d
000000f0: 51f6 39be 5677 723c 87c2 06bd c77e aebd
00000100: f1eb 69be b2d7 093e 2c22 29be dd51 e3bc
00000110: 7347 3e3d 7e1a c73c 96b6 ff3d 2d23 c43d
00000120: e368 21bd 0b5f c93d 5a1a d4bc 6afa 5abe
00000130: 02bb 503d 0aaa 1c3d b57c 223e 2697 44be
00000140: 1403 7dbc 75df fe3c 69a5 fdbd defd 3dbd
00000150: f775 29be 8d31 f3bd a8b5 103e f864 df3c
00000160: 37db 14be 5ce5 853d edd6 553e 2940 debd
00000170: 840f afbd 3072 46be 8d66 683d 4f47 94bc
00000180: 66a0 3f3e 5bbc c8bd 9e12 54be 8261 14be
00000190: efa8 adbc 91e9 8d3d c7fa 323e 82d0 053e
000001a0: b2ca 1ebe 446b 31bb 1773 5c3e 7004 5dbd
000001b0: 224e 13be 75dc de3d a82d 4d3d d216 e63d
000001c0: 75df 5ebc d012 143d 5f9a d73d 1814 943d
000001d0: 3373 073e 15fc 6f3d eddf 2d3e e755 aebd
000001e0: c8e3 90bd e87b 1e3e eb66 4f3d a144 443e
000001f0: f918 06be 6ea7 0abe 1c09 42bc 79c5 5abd
00000200: 7c2b c0bd 4dc0 12be 4e5d 9e3c 5bd5 60be
00000210: aad2 113e dc5e e83d e282 df3d 1568 51be
00000220: 819e fabb 31c2 9dbd a993 3dbe 3b96 44be
00000230: da49 2e3e 9cd8 ed3d c0f3 143e dc92 193e
00000240: 905b 5cbe 79a0 c13c da8d a73d b740 3abe
00000250: dd31 383e 8c3e 093e f5b3 eabd d92a 50be
00000260: a303 283e cfca d73d 78e0 f53d 9071 bd3d
00000270: c8e8 bd3d d21f 0e3d a55a a2bc 68f2 583e
00000280: 2fa7 083d 527b e3bd 6a37 15bc 9033 94bd
00000290: b2a2 fe3c b383 633e a454 dc3d 7b25 7f3d
000002a0: 02ed 1a3e 9aaa 37be fdbf d23d d6f0 54bd
000002b0: 9af3 2bbe 9ed8 1f3c 4161 2b3e ffff a6bd
000002c0: 24da eb3b e74e b7bd 47b2 e83c f3eb b23b
000002d0: a391 25bd a23d 283b 5bb1 193d a8b6 1b3d
000002e0: e367 063e 31da 14be 2e2b 4e3e 67b9 053e
000002f0: 977f 563e 469b 52be d052 7ebd bd95 2f3e
00000300: aaf7 74be 150e e9bc e9b7 40be b1da 273e
00000310: 2255 0abe 4983 34be 87b0 8cbd 898f 8d3d
00000320: 6b99 593d 5dae f33c a837 013d 904c 6abe
00000330: 4299 40be 0b2d d6bc 563f 623d a427 de3d
00000340: 0302 2e3e 59a0 d3bd e8f1 b2bd 7751 01be
00000350: 1e64 c3bc 4cc7 c4bd d268 50bd 32a6 bcbd
00000360: e075 a6bc 1912 16be f247 1abe 777d 48be
00000370: a864 ac3d 67be 41bd 0019 48be 4600 143e
00000380: c85c ea3d ee6d e53d d0ec 293e a352 7cbe
00000390: 52c7 49be 760c 0c3e 103c 53be 6b37 9ebd
000003a0: f997 57be 533f 10be 1f32 10be d3a2 5e3e
000003b0: 3fc5 12be 63be 893b 9396 e4bd c22e 003e
000003c0: a5c0 013d 2bc5 be3d 32cc 14be 2a4c 453d
000003d0: 203c a23d 2f33 dbbd 0972 a6bd d4e0 51bd
000003e0: b20a 2dbe d6ee 62bd 3e4b 233e a82f 433e
000003f0: d8fa 99bd 4f88 d5bd 92a3 b33c 1cba 1ebe

sequential/dense_2/BiasAdd/ReadVariableOp:0 f4 [64]
-0.05525507 -0.031819638 -0.048699982 -0.011800873 0.048272274 0.063115574 -0.035913225 -0.020952908
0.1117837 0.07169577 -0.009194097 -0.025164044 0.040868297 0.13314529 0.03993184 -0.015245631
0.01555071 0.084854804 0.034227125 -0.042308036 -0.014499181 0.07002874 0.008130634 -0.053823553
-0.016891077 0.059809983 0.12850867 -0.08596832 -0.041206162 -0.009565852 -0.0008594967 -0.0041919067
-0.014339141 0.021325422 0.049741168 -0.034138985 0.025758944 -0.09573151 0.012617215 0.049715407
0.11109405 0.025587713 -0.024280483 0.1259597 0.10682454 -0.002176471 -0.015303041 -0.021230014
-0.04508868 -0.029172922 -0.023390338 -0.012926832 -0.012465265 -0.015492473 0.0083642 -0.030783983
0.012529619 -0.021302413 0.041356478 0.005468675 0.041504312 0.0013234024 0.00023934196 -0.050262365
00000000: 2453 62bd 4f55 02bd a279 47bd 7358 41bc
00000010: 26b9 453d bd42 813d bf19 13bd 6fa5 abbc
00000020: daee e43d 3bd5 923d d6a2 16bc d324 cebc
00000030: 8465 273d 3d57 083e 928f 233d d0c8 79bc
00000040: 68c8 7e3c 5bc8 ad3d be31 0c3d 314b 2dbd
00000050: f98d 6dbc 3a6b 8f3d 5a36 053c 1676 5cbd
00000060: 285f 8abc 50fb 743d c797 033e 2910 b0bd
00000070: cbc7 28bd 17ba 1cbc d94f 61ba 435c 89bb
00000080: b7ee 6abc a7b2 ae3c 65bd 4b3d 52d5 0bbd
00000090: 6c04 d33c e20e c4bd 6fb8 4e3c 62a2 4b3d
000000a0: 4785 e33d 539d d13c dde7 c6bc 94fb 003e
000000b0: d3c6 da3d 20a3 0ebb 9bb9 7abc 91ea adbc
000000c0: e8ae 38bd 0dfc eebc 189d bfbc 10cb 53bc
000000d0: 1c3b 4cbc 24d4 7dbc ff09 093c b12e fcbc
000000e0: 0849 4d3c 6682 aebc 6965 293d 9232 b33b
000000f0: 6d00 2a3d 0476 ad3a def7 7a39 e9df 4dbd

sequential/dense_1/MatMul/ReadVariableOp:0 f4 [64, 64]
0.12134698 0.11049601 0.17992172 0.20713411 -0.1721294 -0.04912921 -0.13341354 -0.050927006
-0.15711842 -0.120738104 -0.0054254876 0.1221433 0.042974494 0.10256469 -0.01400144 0.0069753435
-0.16526298 -0.20186394 -0.20231572 -0.13703787 -0.22539493 -0.22990657 0.19272268 -0.16680475
-0.21011922 0.21483213 0.066212304 0.19670431 -0.066014655 0.18500458 -0.120437324 0.12502077
0.04863616 -0.10888204 0.105452396 -0.0032641008 0.22079572 -0.00674541 0.073835984 0.10398165
-0.16468087 -0.05166259 0.09588528 -0.023810593 -0.093977466 0.08766681 -0.124613084 -0.14262965
0.068026945 -0.025711594 0.09752107 -0.15707093 0.17825554 0.12327508 -0.042265564 0.15443161
0.009001479 -0.08066433 -0.036404364 0.12176635 0.05772938 0.06021663 -0.013381913 -0.21018389
0.061985303 -0.011427125 -0.17715387 -0.02085816 -0.10742263 -0.115263596 0.01940924 0.13934246
-0.059116956 0.029756587 -0.014150271 -0.21638669 0.14210622 0.010331218 0.091932036 -0.03058426
0.051167138 0.11335828 0.18630905 -0.11115233 0.0070219124 -0.17607325 -0.11213038 0.07830086
-0.078100614 0.21108419 0.052768648 0.08251965 0.022211453 -0.20253421 -0.10487048 -0.10438357
0.13660063 -0.08559492 -0.09985199 -0.089196205 0.030350154 -0.052600265 -0.023472205 -0.11177261
-0.111273125 0.010319072 0.15878657 0.095393725 0.0014661953 -0.16832462 0.0013956755 0.14230986
-0.16358028 0.08895403 0.03038218 -0.15217495 0.078410655 -0.08164589 -0.018440321 -0.06142814
-0.12344374 -0.15823086 0.05619073 -0.178444 0.03679929 0.086623535 0.051653843 -0.20244823
-0.07953773 0.10407795 0.03135513 0.24706781 0.020247098 0.07568048 -0.30717325 0.0747487
-0.13092595 0.041974243 -0.12405812 0.059874695 0.021283554 0.32898435 0.03309918 -0.057192214
-0.26547125 0.13628195 -0.11532284 -0.15469486 0.26319364 0.08546445 0.14657009 0.10258114
-0.03653783 0.16094011 0.021860147 -0.12131483 -0.081458345 0.12216878 -0.031694807 0.18923643
-0.0014735379 -0.3107091 0.09067399 -0.086052865 0.19526063 -0.17307721 0.07401538 0.03300512
-0.12273537 -0.15331133 0.10034212 -0.18763834 -0.15293495 0.13630772 -0.008636427 -0.031599656
0.10922735 0.015643638 -0.038636822 -0.10071619 -0.114926144 0.28244135 -0.25085348 -0.092290245
-0.048981648 -0.045028016 0.14812438 -0.14555018 0.15375853 -0.061027694 0.05312837 0.0740096
0.014028756 -0.14724658 0.25918585 0.0698418 -0.06548251 0.13222212 -0.067461945 0.1858788
0.11068645 0.051222697 0.28930834 -0.04156464 0.20659108 -0.06313642 -0.11856951 -0.09101075
0.15101665 0.038469467 0.049302846 0.10331431 0.1256838 0.01193455 -0.02062098 -0.0804076
-0.07773382 0.025637636 0.102031104 -0.14888851 0.17763475 -0.034560274 0.0624922 -0.12167469
-0.08008166 0.009150176 0.106231265 0.05689194 -0.00284024 0.17346656 -0.09680291 -0.09353251
-0.15262884 0.11929586 0.08050511 -0.12087489 0.23096707 -0.19673389 0.25568855 -0.05837078
0.10632629 0.14047489 0.015390108 -0.052272264 -0.033663914 0.06574346 -0.14604992 -0.058127567
0.08877348 0.1930359 -0.27576393 -0.061292868 0.19318743 -0.054836437 0.080807045 -0.13979398
00000000: c484 f83d bb4b e23d 663d 383e f71a 543e
00000010: b042 30be b63b 49bd 8f9d 08be d698 50bd
00000020: a7e3 20be 8a45 f7bd 4ac8 b1bb 4426 fa3d
00000030: 0606 303d 700d d23d 4c66 65bc 6c91 e43b
00000040: b33a 29be 6cb5 4ebe da2b 4fbe a853 0cbe
00000050: eecd 66be a16c 6bbe 1859 453e ddce 2abe
00000060: 7e29 57be f4fc 5b3e 519a 873d db6c 493e
00000070: b132 87bd d771 3d3e d8a7 f6bd 7205 003e
00000080: b636 473d 8cfd debd 6df7 d73d 86ea 55bb
00000090: 4618 623e 9a08 ddbb 5237 973d 55f4 d43d
000000a0: 1aa2 28be 279c 53bd 805f c43d 6f0e c3bc
000000b0: 4277 c0bd a88a b33d 2535 ffbd 820d 12be
000000c0: b651 8b3d 1fa1 d2bc 20b9 c73d 34d7 20be
000000d0: 9f88 363e a577 fc3d a81e 2dbd 5223 1e3e
000000e0: f07a 133c 5733 a5bd be1c 15bd a360 f93d
000000f0: a475 6c3d b7a5 763d d03f 5bbc 723a 57be
00000100: 4de4 7d3d d638 3bbc d367 35be bbde aabc
00000110: 6500 dcbd 520f ecbd 2000 9f3c caaf 0e3e
00000120: 9f24 72bd 16c4 f33c 8ad6 67bc 7994 5dbe
00000130: 4b84 113e 4544 293c dd46 bc3d d88b fabc
00000140: a294 513d 6328 e83d cdc7 3e3e d5a3 e3bd
00000150: 1218 e63b 8c4c 34be 9da4 e5bd 345c a03d
00000160: 37f3 9fbd 7426 583e f023 583d 1000 a93d
00000170: cbf4 b53c 2165 4fbe 56c6 d6bd 0ec7 d5bd
00000180: 09e1 0b3e 644c afbd 337f ccbd 80ac b6bd
00000190: e3a0 f83c 6073 57bd c848 c0bc 0ae9 e4bd
000001a0: 2ae3 e3bd 5311 293c f298 223e c95d c33d
000001b0: 5a2d c03a 4a5d 2cbe 19ef b63a adb9 113e
000001c0: 9781 27be 882d b63d 0de4 f83c c0d3 1bbe
000001d0: c495 a03d f635 a7bd 2810 97bc 139c 7bbd
000001e0: 12d0 fcbd 4507 22be 4028 663d 06ba 36be
000001f0: daba 163d ae67 b13d fb92 533d 974e 4fbe
00000200: ade4 a2bd d226 d53d 3d6e 003d 58ff 7c3e
00000210: 3edd a53c 5efe 9a3d d045 9dbe d915 993d
00000220: 7411 06be 2fed 2b3d 2f12 febd 2b3f 753d
00000230: d95a ae3c a370 a83e 0193 073d 6242 6abd
00000240: d9eb 87be 7f8d 0b3e 622e ecbd 5468 1ebe
00000250: 51c1 863e fc07 af3d 7816 163e 1016 d23d
00000260: b1a8 15bd 7ccd 243e 0d14 b33c e973 f8bd
00000270: a2d3 a6bd a033 fa3d 6ad2 01bd 32c7 413e
00000280: ba23 c1ba 4315 9fbe 49b3 b93d 7c3c b0bd
00000290: 67f2 473e 273b 31be 6095 973d 6030 073d
000002a0: af5c fbbd a5fd 1cbe 2b80 cd3d 4424 40be
000002b0: fb9a 1cbe 4094 0b3e cd7f 0dbc a46e 01bd
000002c0: 97b2 df3d 1627 803c a541 1ebd 4a44 cebd
000002d0: 665e ebbd 279c 903e de6f 80be ab02 bdbd
000002e0: fba0 48bd 4c6f 38bd ebad 173e 1b0b 15be
000002f0: e072 1d3e 2df8 79bd 229d 593d 5892 973d
00000300: ded8 653c cfc7 16be 02b4 843e 3809 8f3d
00000310: b21b 86bd 3c65 073e 7d29 8abd 0357 3e3e
00000320: 94af e23d e4ce 513d 3920 943e af3f 2abd
00000330: 9d8c 533e ab4d 81bd 92d4 f2bd d863 babd
00000340: 1ca4 1a3e 2992 1d3d c8f1 493d 7496 d33d
00000350: 41b3 003e 2189 433c 54ed a8bc bdac a4bd
00000360: e932 9fbd 0506 d23c aff5 d03d 3b76 18be
00000370: e2e5 353e 138f 0dbd d2f7 7f3d 9430 f9bd
00000380: da01 a4bd 9fea 153c c78f d93d 8607 693d
00000390: 5223 3abb 38a1 313e 9b40 c6bd f98d bfbd
000003a0: bc4a 1cbe 6351 f43d dddf a43d 418d f7bd
000003b0: a282 6c3e 9c74 49be 9ce9 823e 3316 6fbd
000003c0: 99c1 d93d a6d8 0f3e cb26 7c3c 711b 56bd
000003d0: 2ce3 09bd 82a4 863d 1c8e 15be 2c17 6ebd
000003e0: dfce b53d 34ab 453e ee30 8dbe 3b0e 7bbd
000003f0: edd2 453e 2c9c 60bd 2a7e a53d 2726 0fbe

sequential/dense_1/BiasAdd/ReadVariableOp:0 f4 [64]
0.02008732 0.016774202 0.01643031 -0.01338212 0.07935814 -0.049990024 -0.023872185 0.0038659866
0.022250665 0.16947457 0.021615298 -0.024663785 0.06497792 0.052530788 0.1272102 0.15577947
-0.022442669 -0.011728077 -0.016031487 -0.019249007 0.10159403 0.071196444 0.06528064 0.028912764
-0.050629627 0.093939304 0.03654549 -0.009240224 0.000108455526 0.0255329 0.033952776 0.09328675
0.009866351 -0.053430118 0.014586436 0.041313134 0.02866643 0.06926021 0.004734777 -0.025522681
0.025932427 0.027926475 0.055186182 -0.03706053 0.05598346 0.043868385 -0.020346092 -0.017012728
-0.019144429 -0.0064628175 -0.062361795 -0.027376145 -0.030685235 0.049218398 -0.05614534 -0.022704361
-0.10553592 0.11277855 -0.018487161 -0.03165091 0.03626177 0.0021928737 0.09111026 -0.0494169
00000000: 2a8e a43c 0d6a 893c dc98 863c ae40 5bbc
00000010: 8586 a23d 57c2 4cbd 9a8f c3bc 7e5c 7d3b
00000020: 0747 b63c be8a 2d3e 9112 b13c b50b cabc
00000030: 2513 853d 862a 573d 6443 023e a784 1f3e
00000040: b0d9 b7bc 1f27 40bc 7754 83bc 18b0 9dbc
00000050: 8810 d03d 71cf 913d dbb1 853d 76da ec3c
00000060: 0361 4fbd 4063 c03d b9b0 153d 4f64 17bc
00000070: 9e72 e338 5f2a d13c 1112 0b3d 200d bf3d
00000080: 7aa6 213c 8ad9 5abd f2fb 6e3c f637 293d
00000090: dcd5 ea3c 4cd8 8d3d 3026 9b3b f114 d1bc
000000a0: 3e70 d43c 10c6 e43c e80a 623d c8cc 17bd
000000b0: ea4e 653d 56af 333d d9ac a6bc 475e 8bbc
000000c0: c7d4 9cbc 0bc6 d3bb 156f 7fbd f043 e0bc
000000d0: 9a5f fbbc 3b99 493d a8f8 65bd 7ffe b9bc
000000e0: 3723 d8bd 71f8 e63d 6372 97bc 62a4 01bd
000000f0: 3987 143d 51b6 0f3b 0498 ba3d 6069 4abd

sequential/dense/MatMul/ReadVariableOp:0 f4 [16, 64]
0.21504033 -0.24834982 0.12316866 0.10268664 0.25059354 0.032859072 0.21393135 -0.04351425
-0.026974576 -0.109910436 -0.07243245 0.22730634 0.163792 -0.18651329 0.25977406 0.07554761
-0.13195771 0.010645083 0.10069977 -0.017415779 -0.10578238 -0.22698137 0.084792666 0.18751915
-0.2086044 -0.062414747 -0.008823654 0.17583893 0.24108183 -0.17476775 0.19472885 -0.10511826
-0.20310615 -0.17902751 0.04715172 -0.13050513 -0.04080764 0.039520055 0.0045860754 0.015740756
-0.15407246 -0.26198584 -0.120494746 0.029951764 0.12863594 0.22541316 -0.1928649 0.12842834
-0.18109728 -0.15378572 -0.012614986 0.172051 -0.030596789 0.04278132 0.084671736 -0.010423452
0.13720115 0.1055601 -0.17602165 0.22255258 0.20203236 0.21849336 0.17680861 0.18476614
0.10182546 -0.002119942 -0.08535874 -0.16876556 0.077496335 -0.038220998 0.21535607 0.042733215
0.18867376 0.29967824 -0.02713491 0.20413375 -0.14501444 0.14733237 -0.26692355 0.09522259
0.3096363 0.19903836 0.13415816 0.13806552 -0.05272241 -0.069780566 0.21187064 -0.1586917
-0.006521056 -0.058689747 0.026703184 -0.255006 -0.12849429 -0.09372925 0.14929605 0.17941377
0.096187085 -0.04385634 0.18996811 0.0919902 0.21849138 -0.061648536 0.056129284 0.06808399
0.25762802 -0.05669573 0.05892083 -0.21968931 -0.27528706 -0.25437292 0.0052263234 0.28394812
-0.1300063 0.17264034 0.011549477 0.03664055 -0.2660898 -0.12045757 0.01998362 0.11875065
0.080996044 0.13908945 0.14797884 -0.06665138 0.2589008 0.18982968 0.2569767 -0.30054852
0.17886622 0.12386209 0.16921863 0.2550971 -0.13626373 0.026473587 0.018070647 0.21968684
-0.09444945 -0.08836534 0.07482972 0.17129982 0.20901546 -0.12558718 -0.10668523 0.008343573
0.0020111133 0.22387151 0.17992207 -0.07375964 -0.011711986 0.075692326 0.1253843 -0.13674732
-0.16208644 -0.020805044 -0.056011837 0.32052094 -0.07447332 0.038973838 -0.1646254 0.052206133
-0.05229255 -0.15704477 0.2631064 -0.023220701 0.047890753 0.056219786 0.10256198 -0.14058241
0.19849944 0.19311558 -0.103225 0.10880645 0.24850935 0.008852503 0.20407963 0.22059463
0.18380903 0.017653324 0.15385418 -0.2405852 0.21929966 0.018308021 0.09928506 0.13907473
-0.33781558 0.0071275323 -0.12550946 -0.24504894 -0.17665213 -0.108183235 -0.21512213 -0.17914669
0.06838292 -0.19567627 -0.09818942 -0.043304678 -0.054362107 0.25117293 -0.09414993 0.13082579
-0.023844182 0.20390902 -0.054083753 -0.11529874 0.33311108 -0.13169602 -0.11025282 0.31210345
-0.10103298 -0.1048642 -0.1694725 0.10661429 0.15577446 -0.021814104 0.21014656 0.1971621
0.1389595 0.18839869 0.24533617 0.13086414 -0.18029849 0.14736721 -0.20328262 -0.10552803
0.08635182 -0.10252056 -0.11754045 0.13211408 0.22541334 -0.19452071 0.2651986 0.31269804
0.2747224 -0.067390785 -0.08175281 0.04747565 0.22162054 -0.0483473 0.031615473 0.18801367
-0.15120722 -0.08958822 0.08335388 0.26801983 -0.11573383 0.069196075 0.13552804 -0.18612419
-0.29774755 -0.2567275 0.31172884 -0.2748871 -0.054394003 -0.20920208 -0.10630676 0.113939
00000000: 8833 5c3e 6a4f 7ebe da3f fc3d 604d d23d
00000010: cc4d 803e 3c97 063d d210 5b3e 003c 32bd
00000020: c9f9 dcbc b918 e1bd 7757 94bd fec2 683e
00000030: 17b9 273e 57fd 3ebe 1b01 853e b5b8 9a3d
00000040: ec1f 07be b768 2e3c ae3b ce3d 89ab 8ebc
00000050: 6fa4 d8bd ce6d 68be c7a7 ad3d 0505 403e
00000060: 649c 55be 9ba6 7fbd 1691 10bc 1f0f 343e
00000070: 28de 763e 51f6 32be 0067 473e 3e48 d7bd
00000080: 0ffb 4fbe fd52 37be 2922 413d 23a3 05be
00000090: e925 27bd c8df 213d ca46 963b c2f2 803c
000000a0: 2cc5 1dbe 0223 86be f3c5 f6bd 675d f53c
000000b0: 24b9 033e b5d2 663e 607e 45be b882 033e
000000c0: 9171 39be 017a 1dbe 16af 4ebc 232e 303e
000000d0: 1ea6 fabc 773b 2f3d 6068 ad3d 20c7 2abc
000000e0: 757e 0c3e e52f d83d 053f 34be d3e4 633e
000000f0: 92e1 4e3e b9bc 5f3e 510d 353e 5633 3d3e
00000100: de89 d03d baee 0abb 90d0 aebd e1d0 2cbe
00000110: 66b6 9e3d 9f8d 1cbd 4d86 5c3e 0609 2f3d
00000120: b233 413e 6d6f 993e 084a debc 7008 513e
00000130: aa7e 14be 4cde 163e 34aa 88be 1004 c33d
00000140: a688 9e3e b6d0 4b3e c260 093e 0c61 0d3e
00000150: 74f3 57bd 1de9 8ebd 9ef4 583e 1480 22be
00000160: 95ae d5bb a964 70bd a3c0 da3c 2590 82be
00000170: 0294 03be 1ff5 bfbd 10e1 183e 3eb8 373e
00000180: bcfd c43d b5a2 33bd 0087 423e 5c65 bc3d
00000190: 34bc 5f3e 2d83 7cbd d2e7 653d 9e6f 8b3d
000001a0: d2e7 833e c839 68bd f856 713d 3cf6 60be
000001b0: 6df2 8cbe 2b3d 82be 9441 ab3b a661 913e
000001c0: 5f20 05be a1c8 303e 053a 3d3c 6714 163d
000001d0: ec3c 88be 75b2 f6bd b0b4 a33c 8a33 f33d
000001e0: 41e1 a53d 776d 0e3e c487 173e 8580 88bd
000001f0: a58e 843e b662 423e 7392 833e 7fe1 99be
00000200: b528 373e 68ab fd3d a647 2d3e 169c 823e
00000210: b888 0bbe 23df d83c e508 943c 96f5 603e
00000220: b76e c1bd e3f8 b4bd 5340 993d 3869 2f3e
00000230: 2608 563e ed99 00be c97d dabd 7bb3 083c
00000240: e2cc 033b 933e 653e 7e3d 383e 4b0f 97bd
00000250: a1e3 3fbc 9404 9b3d be64 003e 7d07 0cbe
00000260: fdf9 25be 576f aabc ab6c 65bd 521b a43e
00000270: 7885 98bd 08a3 1f3d 9093 28be 19d6 553d
00000280: b730 56bd 58d0 20be e2b5 863e 5739 bebc
00000290: 1829 443d b846 663d 040c d23d d6f4 0fbe
000002a0: 7043 4b3e 17c0 453e a167 d3bd ebd5 de3d
000002b0: 3c79 7e3e 170a 113c 40fa 503e 8fe3 613e
000002c0: 6f38 3c3e b49d 903c f38b 1d3e f75b 76be
000002d0: 1790 603e b4fa 953c f755 cb3d 9b69 0e3e
000002e0: 2af6 acbe 138e e93b 8d85 00be 1cee 7abe
000002f0: 4ce4 34be 2c8f ddbd fa48 5cbe 3b72 37be
00000300: 580c 8c3d 5c5f 48be 8917 c9bd 3f60 31bd
00000310: cdaa 5ebd bd99 803e aed1 c0bd 32f7 053e
00000320: e054 c3bc 87cd 503e ed86 5dbd bf21 ecbd
00000330: 898d aa3e 52db 06be 3bcc e1bd 06cc 9f3e
00000340: 61ea cebd 0bc3 d6bd 338a 2dbe 9858 da3d
00000350: 5783 1f3e 7eb3 b2bc a930 573e dde4 493e
00000360: 664b 0e3e 96eb 403e 6839 7b3e 4001 063e
00000370: 2ba0 38be 6ee7 163e 5229 50be 141f d8bd
00000380: 39d9 b03d 4df6 d1bd 0cb9 f0bd ea48 073e
00000390: c1d2 663e 7030 47be 1cc8 873e f519 a03e
000003a0: 6aa8 8c3e 2e04 8abd 046e a7bd d475 423d
000003b0: 7ff0 623e d207 46bd 3a7f 013d a886 403e
000003c0: 11d6 1abe 077a b7bd 70b5 aa3d e539 893e
000003d0: dc05 edbd acb6 8d3d ddc7 0a3e 5797 3ebe
000003e0: 5e72 98be c971 83be ec9a 9f3e 01be 8cbe
000003f0: 3fcc 5ebd 1239 56be 5cb7 d9bd da58 e93d

sequential/dense/BiasAdd/ReadVariableOp:0 f4 [64]
0.038873594 -0.035859067 0.1702765 0.1537122 0.1414131 -0.0076946435 -0.07055216 0.043718956
0.04523316 0.051855966 -0.04455841 0.05254331 0.062060356 0.01955328 0.087035075 0.05071935
0.21305653 -0.013619751 0.057526466 0.2362089 0.008651972 0.063067496 0.12138103 0.069640204
-0.0502315 -0.043859046 0.083852135 0.05040064 0.044455633 0.17744394 0.06743124 0.1045594
-0.035908815 0.13145635 0.08497744 0.21877438 0.15671985 0.09892908 0.075438105 -0.0627726
0.18359758 -0.02181314 0.049535908 0.21720208 0.009267802 0.025213575 0.039264176 0.022592867
-0.021130795 0.19078611 0.04396393 0.023388652 -0.03242334 0.20879734 0.03080666 0.18664272
0.00063107937 0.21744478 0.104981355 -0.10524118 0.104373656 0.029975338 0.096211515 -0.06221427
00000000: eb39 1f3d f5e0 12bd f65c 2e3e bb66 1d3e
00000010: 98ce 103e 5923 fcbb a77d 90bd a612 333d
00000020: 6846 393d ec66 543d e182 36bd a737 573d
00000030: 0033 7e3d 332e a03c 723f b23d 18bf 4f3d
00000040: 7e2b 5a3e 6025 5fbc dfa0 6b3d bfe0 713e
00000050: 00c1 0d3c 8829 813d 9e96 f83d 869f 8e3d
00000060: 8cbf 4dbd 8ba5 33bd abba ab3d e770 4e3d
00000070: 1c17 363d ddb3 353e 6419 8a3d 3d23 d63d
00000080: 1f15 13bd 7e9c 063e a708 ae3d 6406 603e
00000090: 2b7b 203e 549b ca3d 4b7f 9a3d ec8e 80bd
000000a0: 0101 3c3e 78b1 b2bc 2ae6 4a3d 396a 5e3e
000000b0: fbd7 173c b38c ce3c 79d3 203d ad14 b93c
000000c0: 7d1a adbc 6f5d 433e 8613 343d 8f99 bf3c
000000d0: 56ce 04bd f8ce 553e 405e fc3c 451f 3f3e
000000e0: 056f 253a d8a9 5e3e 7700 d73d b088 d7bd
000000f0: dbc1 d53d d78e f53c 8b0a c53d 64d4 7ebd
